cnn_model.pth (torch, 118492 bytes, 6 tensors)

conv1.0.weight f4 [16, 1, 5, 5]
-0.02186243 0.18729056 -0.07696387 0.2713039 0.074141294 0.016297808 0.22259356 0.041897357
0.17903303 0.29074395 -0.16203058 0.0212855 0.046389785 -0.013133385 0.22216412 -0.1818315
-0.26880616 -0.1967583 -0.11289376 -0.0051842816 0.14899093 -0.12181308 -0.2732298 -0.14018956
-0.120688595 -0.054270685 0.017345764 0.28935495 -0.14264514 -0.08093123 0.08779984 -0.07970047
0.19468625 -0.105216235 0.02153561 -0.12686454 0.058069944 0.06065622 -0.008939355 0.041468654
0.053192217 -0.16764292 0.074367195 0.042441327 -0.0066261007 0.02503199 -0.0191757 -0.15402144
-0.10010566 -0.021727104 0.28444383 0.17232932 0.18128692 0.19493538 0.043090843 -0.13220033
-0.3066303 -0.0072197514 0.09506373 -0.0930548 -0.46056306 0.09942337 0.28359848 -0.16082253
0.17267917 -0.11388105 0.23927167 0.12975353 -0.22346282 -0.14371002 0.30074793 0.38237232
-0.40386036 -0.2651638 -0.012622996 -0.18270649 -0.13041197 0.07696458 -0.16089764 0.11351612
0.033680104 0.1542822 0.29559204 0.3330984 -0.00042562356 0.2748119 0.117768995 0.20725514
-0.06445546 -0.18974423 0.10866404 -0.09997143 -0.20756401 -0.11563662 -0.23577839 -0.08939629
-0.21128781 0.14212465 0.010484642 -0.083327405 0.13201796 -0.019890076 0.32261416 0.11282664
-0.10901282 -0.17074877 -0.055660747 0.18985142 0.16406813 -0.13023236 -0.20453884 -0.12334212
0.22006828 0.18323259 -0.07854765 -0.1734068 -0.17685136 0.14333923 0.26397586 -0.048151795
-0.028760884 -0.029162228 0.13033642 0.18792899 -0.015932595 0.105357155 -0.011165145 0.24970941
0.33736274 0.42753652 0.1449394 0.24268806 0.11963628 0.081312604 -0.1497184 0.13974848
0.03862451 0.11549489 -0.18284723 -0.09411397 -0.18278651 -0.3131828 -0.21800864 0.0011288451
-0.17534295 -0.09178441 0.0028516497 -0.07574527 -0.1977506 0.21743377 0.36312628 0.3318558
0.32375896 -0.028243167 0.02355868 -0.058182985 -0.1061608 0.030607957 -0.038510483 -0.13120458
-0.28929418 -0.1022938 -0.19516651 0.022375686 0.012559184 -0.08627968 -0.26502818 0.08192111
0.114382155 0.023347229 0.15588948 0.04680074 0.005507981 -0.11161512 0.21659423 0.18035677
0.23859788 0.12752014 -0.073407784 -0.1848195 0.22998023 0.17637151 -0.11104942 -0.07295729
0.05836766 0.38845232 0.019477207 0.041937813 -0.2565641 -0.009143668 0.33873844 -0.17049061
0.01650299 -0.24660967 -0.0796965 0.2740502 0.04438319 -0.06643422 -0.093425415 0.13696286
-0.21430394 0.112713404 0.23859785 -0.019091647 -0.0385885 0.36563882 0.3037655 -0.020710502
0.23890896 -0.023294913 0.23727313 -0.1286269 -0.42201996 0.11917453 -0.07965941 0.096450694
-0.36535496 -0.24951854 -0.08048387 0.51195836 0.14055939 0.36500004 0.33404815 0.23215711
-0.03655323 -0.03918372 0.27427208 0.2939447 0.017813435 0.1395372 0.058599625 -0.21385622
0.2001622 0.116930075 -0.02960675 -0.062166624 -0.16361968 0.19880891 0.19494782 0.14789087
-0.13693896 -0.010921408 -0.1521054 0.24651912 0.1755751 -0.112786606 -0.23706482 -0.26674417
0.037518065 0.22435291 0.14855221 0.113192156 0.019346079 -0.4547179 -0.25964892 -0.021639798
00000000: d718 b3bc 19c9 3f3e 3c9f 9dbd 58e8 8a3e
00000010: 64d7 973d fb82 853c 91ef 633e 909c 2b3d
00000020: 6f54 373e 64dc 943e 58eb 25be ee5e ae3c
00000030: 3703 3e3d 692d 57bc fe7e 633e 0932 3abe
00000040: f6a0 89be 027b 49be d834 e7bd e8e0 a9bb
00000050: 1491 183e 2379 f9bd c7e4 8bbe da8d 0fbe
00000060: 952b f7bd f04a 5ebd b418 8e3c 5526 943e
00000070: 9111 12be 46bf a5bd 67d0 b33d 003a a3bd
00000080: d55b 473e 9c7b d7bd 736b b03c c7e8 01be
00000090: c0da 6d3d a872 783d 5f76 12bc 09db 293d
000000a0: 15e0 593d 96aa 2bbe d44d 983d f5d6 2d3d
000000b0: c31f d9bb e30f cd3c 5c16 9dbc ccb7 1dbe
000000c0: 3204 cdbd 0afd b1bc 9fa2 913e 1977 303e
000000d0: 47a3 393e 249d 473e 0680 303d 865f 07be
000000e0: a6fe 9cbe aa93 ecbb c6b0 c23d 8493 bebd
000000f0: ecce ebbe 7b9e cb3d d233 913e a9ae 24be
00000100: cfd2 303e 783a e9bd a203 753e 1cde 043e
00000110: 70d3 64be b828 13be a2fb 993e 4ec6 c33e
00000120: c9c6 cebe 8dc3 87be afd0 4ebc 6917 3bbe
00000130: b78a 05be 9b9f 9d3d 5ac2 24be 247b e83d
00000140: 26f4 093d 27fc 1d3e d757 973e e08b aa3e
00000150: 3a26 dfb9 25b4 8c3e df30 f13d b13a 543e
00000160: 3901 84bd 504c 42be 418b de3d d2bd ccbd
00000170: a98b 54be e4d2 ecbd e46f 71be 6715 b7bd
00000180: d55b 58be 2089 113e c7c7 2b3c 8fa7 aabd
00000190: b72f 073e 83f0 a2bc af2d a53e a711 e73d
000001a0: 1d42 dfbd c4d8 2ebe 86fc 63bd 6968 423e
000001b0: 7a01 283e a25b 05be a172 51be cb9a fcbd
000001c0: 9459 613e 53a1 3b3e 97dd a0bd 8d91 31be
000001d0: 8618 35be 85c7 123e d827 873e d13a 45bd
000001e0: f29b ebbc a0e5 eebc e976 053e 7570 403e
000001f0: 1385 82bc 7ec5 d73d 03ee 36bc d3b3 7f3e
00000200: cfba ac3e 11e6 da3e fe6a 143e 3883 783e
00000210: de03 f53d 3987 a63d c84f 19be 3a1a 0f3e
00000220: bc34 1e3d 9688 ec3d 4e3c 3bbe d3be c0bd
00000230: 632c 3bbe 7f59 a0be a83d 5fbe c2f5 933a
00000240: 1a8d 33be 77f9 bbbd bee2 3a3b 5620 9bbd
00000250: 227f 4abe f5a6 5e3e b0eb b93e 01e9 a93e
00000260: bcc3 a53e 375e e7bc 22fe c03c 4851 6ebd
00000270: d56a d9bd 8abd fa3c 2bbd 1dbd 7e5a 06be
00000280: 5e1e 94be 697f d1bd bbd9 47be 374d b73c
00000290: 09c5 4d3c 67b3 b0bd c6b1 87be 41c6 a73d
000002a0: 3141 ea3d b042 bf3c 7ea1 1f3e 22b2 3f3d
000002b0: 4b7c b43b 7896 e4bd e1ca 5d3e 72af 383e
000002c0: 0153 743e a494 023e d256 96bd 5341 3dbe
000002d0: f07f 6b3e bc9a 343e e16d e3bd a26a 95bd
000002e0: ed12 6f3d 39e3 c63e aa8e 9f3c fcc6 2b3d
000002f0: 5f5c 83be 53cf 15bc 206f ad3e 1795 2ebe
00000300: 4731 873c 3f87 7cbe eb37 a3bd 4f50 8c3e
00000310: 26cb 353d aa0e 88bd d355 bfbd fe3f 0c3e
00000320: 7e72 5bbe 49d6 e63d ff52 743e 1666 9cbc
00000330: fa0e 1ebd 0335 bb3e 2787 9b3e 12a9 a9bc
00000340: 8da4 743e f9d4 bebc baf7 723e c5b6 03be
00000350: 0013 d8be c711 f43d 7924 a3bd f187 c53d
00000360: ce0f bbbe ca81 7fbe bad4 a4bd b40f 033f
00000370: cdee 0f3e 49e1 ba3e 5c08 ab3e 98ba 6d3e
00000380: d7b8 15bd 1c7f 20bd 646d 8c3e eb7f 963e
00000390: 7bed 913c d7e2 0e3e 2906 703d 20fd 5abe
000003a0: 52f7 4c3e 0979 ef3d db89 f2bc 6ea2 7ebd
000003b0: eb8b 27be 9094 4b3e 67a0 473e b470 173e
000003c0: ba39 0cbe b5ef 32bc 85c1 1bbe 826f 7c3e
000003d0: f6c9 333e aafc e6bd 1fc1 72be b192 88be
000003e0: 8bac 193d c5bc 653e 121e 183e 4ad1 e73d
000003f0: ab7b 9e3c c9d0 e8be b4f0 84be f245 b1bc

conv1.0.bias f4 [16]
-0.24959096 -0.3649184 -0.3566488 -0.23725635 -0.3323387 -0.028177364 -0.3361059 -0.12647979
-0.1759686 -0.10582486 -0.15781032 -0.0312567 -0.37534064 -0.47935858 -0.42800233 -0.24215275
00000000: c694 7fbe 96d6 babe ac9a b6be 54f3 72be
00000010: 4c28 aabe 37d4 e6bc 1316 acbe eb83 01be
00000020: 1d31 34be b4ba d8bd 0799 21be 0707 00bd
00000030: a62c c0be 7d6e f5be 1f23 dbbe e4f6 77be

conv2.0.weight f4 [32, 16, 5, 5]
-0.16194932 -0.35002935 -0.2653181 -0.1957483 0.013866251 0.0869507 -0.0015300224 -0.09723053
-0.066096686 -0.049250264 0.18150775 0.073340245 -0.28891283 -0.381429 -0.2517232 -0.016592614
-0.14130014 -0.38945666 -0.3457013 -0.04876745 -0.34887624 -0.23086247 -0.1913648 -0.17966837
-0.11881506 0.05531897 -0.1777062 -0.10493286 -0.07792918 0.04983116 -0.07814854 0.03236492
0.011408066 -0.029942442 0.051724963 0.07250054 0.090728715 -0.04336637 -0.09392506 -0.11180594
0.0630729 -0.0055211773 -0.05931672 -0.14923505 -0.22490858 0.115346484 -0.023423001 -0.004747396
0.14371245 -0.07856715 -0.205221 -0.004732735 0.07254859 -0.016589975 -0.2782628 -0.008524847
0.1327655 0.043535296 -0.018201113 -0.12497379 -0.08508817 -0.2667723 -0.16371983 0.117170274
0.0101633575 0.057491325 -0.0037837683 0.008422208 0.109817125 0.21426803 0.11382015 -0.112701215
0.042207684 0.20863555 0.11466686 0.006101502 0.02709841 0.075144336 0.03705675 0.016470531
0.17099577 0.10250913 0.17179675 -0.14523607 -0.16922756 0.10091873 0.116226085 -0.11442083
-0.3259869 -0.10077788 -0.090906635 -0.3657501 -0.18590209 -0.07950903 0.06937686 -0.04676164
0.104610175 -0.024818586 0.03088355 0.114536345 0.19924703 0.11798398 0.107844 -0.09442768
-0.044243157 0.08336106 0.095434405 -0.09235491 -0.18668848 0.08912149 0.004619257 0.017082326
-0.09809651 -0.15102498 -0.088338606 -0.108060405 -0.08742376 0.05443237 -0.02108779 -0.087195516
-0.08573486 0.016757414 0.13037972 0.20586473 -0.09822618 -0.045497257 -0.07183738 -0.12951094
-0.05379971 0.032673016 0.10531108 0.10213763 0.022073407 -0.015914379 -0.12187368 0.21420842
0.2030363 -0.080809824 -0.2904223 -0.22433062 0.034424607 -0.119597375 -0.23089725 -0.19599016
0.058006313 -0.41521415 -0.2204698 -0.12841806 -0.055766467 0.049147543 -0.03708149 -0.113334246
-0.20312281 -0.12858425 0.037517358 0.20296524 -0.11144113 -0.030737372 -0.033450298 0.046456736
0.10761374 0.1520754 0.072850235 -0.032087125 -0.11001775 0.08225352 0.11775273 0.048091304
-0.1657279 0.019222278 -0.16981833 -0.10041155 -0.17738296 -0.17829935 -0.055741683 0.027782565
0.11350683 0.20965151 0.10764057 0.12703484 0.040835515 0.1937305 0.26023915 0.21619336
-0.110749125 -0.034435824 0.019118791 0.06152582 0.009500308 -0.21296749 -0.03521067 -0.099993624
-0.05872949 -0.0060626133 -0.07089453 0.114521176 0.0014250823 -0.011586769 0.1778762 0.16542007
0.23497497 0.011355936 -0.2823657 -0.13474631 0.026067384 0.1259991 -0.09170243 0.1299138
0.12817644 0.028049681 0.03711391 0.2204094 0.118723996 0.023029746 0.059380878 -0.11917719
-0.17041966 -0.12365165 -0.17510074 0.10442041 -0.048530065 -0.16247073 -0.02692008 0.058573343
0.19192928 0.14882365 -0.09378638 -0.19700412 -0.1676046 -0.13287248 0.09973661 0.06368919
-0.26815107 -0.12232912 -0.1304624 0.13732752 -0.012819609 -0.28774363 -0.2192815 -0.27618843
-0.119921975 -0.03651525 -0.06492034 -0.0785961 -0.0972031 -0.13994195 0.023513699 0.06967834
-0.049589597 -0.13364995 0.03406115 0.16115744 0.027377866 -0.12202497 0.010289058 -0.087332234
00000000: 0bd6 25be 0c37 b3be c6d7 87be 3e72 48be
00000010: 462f 633c 3513 b23d 088b c8ba cd20 c7bd
00000020: b35d 87bd a5ba 49bd 2bdd 393e 6933 963d
00000030: 62ec 93be a94a c3be dde1 80be 3ced 87bc
00000040: fcb0 10be dd66 c7be c3ff b0be 61c0 47bd
00000050: e89f b2be 3667 6cbe 22f5 43be fcfa 37be
00000060: 4f55 f3bd 2596 623d 9df8 35be 0ae7 d6bd
00000070: 5599 9fbd c21b 4c3d 570c a0bd 1491 043d
00000080: e6e8 3a3c da49 f5bc 8edd 533d 2a7b 943d
00000090: facf b93d efa0 31bd c85b c0bd 83fa e4bd
000000a0: 5d2c 813d feea b4bb 17f6 72bd 13d1 18be
000000b0: 6f4e 66be c73a ec3d 98e1 bfbc 0b90 9bbb
000000c0: 5b29 133e d0e7 a0bd 7425 52be 0f15 9bbb
000000d0: 5b94 943d b3e7 87bc 7678 8ebe cdab 0bbc
000000e0: aef3 073e 1152 323d 801a 95bc 42f2 ffbd
000000f0: b542 aebd 6196 88be 2ca6 27be f8f6 ef3d
00000100: 3684 263c 067c 6b3d 19f9 77bb 4dfd 093c
00000110: cde7 e03d 1469 5b3e 8a1a e93d e5cf e6bd
00000120: f7e1 2c3d 8fa4 553e 75d6 ea3d 1cef c73b
00000130: 7cfd dd3c 46e5 993d d2c8 173d 35ed 863c
00000140: 8419 2f3e 4ff0 d13d 7deb 2f3e c4b8 14be
00000150: fd49 2dbe 7bae ce3d f107 ee3d 7855 eabd
00000160: c1e7 a6be a264 cebd 422d babd 9943 bbbe
00000170: 1e5d 3ebe a1d5 a2bd 7515 8e3d 2289 3fbd
00000180: dc3d d63d 5950 cbbc 80ff fc3c 0892 ea3d
00000190: 6a07 4c3e 96a1 f13d 51dd dc3d 4d63 c1bd
000001a0: 5038 35bd 34b9 aa3d 1d73 c33d 9224 bdbd
000001b0: 442b 3fbe 5485 b63d 235d 973b 3cf0 8b3c
000001c0: d3e6 c8bd 4ba6 1abe dfea b4bd c64e ddbd
000001d0: 3a0b b3bd 7af4 5e3d 4dc0 acbc 9093 b2bd
000001e0: c295 afbd d846 893c 4382 053e 34ce 523e
000001f0: cf2a c9bd 555b 3abd 7a1f 93bd 849e 04be
00000200: 165d 5cbd 24d4 053d 56ad d73d 892d d13d
00000210: 4ad3 b43c df5e 82bc e898 f9bd 7459 5b3e
00000220: bfe8 4f3e 9f7f a5bd 3bb2 94be edb6 65be
00000230: d100 0d3d 78ef f4bd 5470 6cbe a5b1 48be
00000240: 0798 6d3d f396 d4be d6c2 61be 0680 03be
00000250: 616b 64bd ef4e 493d c3e2 17bd c91b e8bd
00000260: 6dff 4fbe 97ab 03be cdab 193d 1fd6 4f3e
00000270: 3f3b e4bd f1cc fbbc 2e03 09bd 6b49 3e3d
00000280: 9864 dc3d a7b9 1b3e 8132 953d ca6d 03bd
00000290: fc50 e1bd 8974 a83d 5828 f13d 63fb 443d
000002a0: 93b4 29be 0a78 9d3c dbe4 2dbe 92a4 cdbd
000002b0: e1a3 35be 1b94 36be 6451 64bd 4398 e33c
000002c0: 4576 e83d e3ae 563e a972 dc3d 6c15 023e
000002d0: 2443 273d 4a61 463e 113e 853e cb61 5d3e
000002e0: 70d0 e2bd 940c 0dbd 039f 9c3c 8002 7c3d
000002f0: 2ea7 1b3c 2614 5abe 1039 10bd 75c9 ccbd
00000300: 558e 70bd e3a8 c6bb 2731 91bd 148a ea3d
00000310: d4c9 ba3a 6ed6 3dbc 2e25 363e e163 293e
00000320: 479d 703e 3f0e 3a3c 3d92 90be f0fa 09be
00000330: 448b d53c e805 013e 7cce bbbd 2008 053e
00000340: af40 033e 72c8 e53c c104 183d 00b3 613e
00000350: 9125 f33d e1a8 bc3c 5d39 733d 2c13 f4bd
00000360: 7e82 2ebe 143d fdbd 9c4d 33be 5eda d53d
00000370: 76c7 46bd ba5e 26be 8087 dcbc 9aea 6f3d
00000380: 1c89 443e 3a65 183e 1313 c0bd 73bb 49be
00000390: 8aa0 2bbe b90f 08be b542 cc3d 7a6f 823d
000003a0: 194b 89be b187 fabd ef97 05be 969f 0c3e
000003b0: 5609 52bc 2253 93be 548b 60be 9268 8dbe
000003c0: a799 f5bd 0491 15bd f5f4 84bd fef6 a0bd
000003d0: 6b12 c7bd f14c 0fbe cd9f c03c 84b3 8e3d
000003e0: 761e 4bbd 88db 08be b483 0b3d 7506 253e
000003f0: 8c47 e03c 3ae8 f9bd 7093 283c 3edb b2bd

conv2.0.bias f4 [32]
-0.020040458 -0.15190116 -0.052892875 -0.21870454 -0.18480399 -0.104116715 -0.123972595 -0.40438592
-0.10717293 -0.03564115 -0.16902661 -0.13455017 -0.2229256 -0.12784022 -0.06179382 -0.21394458
-0.33543774 -0.10819581 -0.18288098 -0.24749538 -0.12035712 -0.22647578 -0.17695475 -0.12631238
-0.018967455 -0.08826193 -0.26308423 -0.17418155 -0.18391871 -0.16140151 -0.20133545 -0.08001944
00000000: e32b a4bc fa8b 1bbe 33a6 58bd 15f4 5fbe
00000010: 423d 3dbe 253b d5bd 58e5 fdbd ac0b cfbe
00000020: 7b7d dbbd 74fc 11bd 5015 2dbe 85c7 09be
00000030: 9c46 64be 8ce8 02be 841b 7dbd 4a14 5bbe
00000040: 7fbe abbe c495 ddbd 2745 3bbe 6e6f 7dbe
00000050: cb7d f6bd 44e9 67be a033 35be 0858 01be
00000060: a361 9bbc acc2 b4bd fab2 86be a65c 32be
00000070: 3055 3cbe 7046 25be e12a 4ebe 3be1 a3bd

out.weight f4 [10, 1568]
-0.009350022 -0.04957061 -0.07379582 -0.059507832 -0.08588152 0.11907728 -0.058829676 0.028773053
-0.004734012 0.0035957608 0.0845663 -0.014135012 -0.15994845 -0.18933076 0.075331785 0.17317556
0.0754041 -0.30275312 -0.10993978 -0.4403544 -0.35301968 0.056849133 0.07814183 -0.018405808
0.06483796 -0.06085801 -0.2103213 -0.017750543 0.031790566 0.039446954 -0.41486531 0.0933918
0.19585891 0.09502139 0.16989346 0.08484075 -0.22042006 -0.43554434 0.2699812 0.18558043
0.087071784 0.07604008 -0.043289635 0.07623638 0.012649908 0.053979803 0.006096027 -0.061173867
-0.042404424 -0.19645214 -0.104699165 -0.026733384 -0.15365078 -0.09308234 0.030028265 0.14732178
0.021350825 -0.01126264 0.048967116 0.1856625 0.10120274 0.10092112 -0.029521078 0.047814205
-0.13884418 -0.14153826 -0.07775521 0.07899951 0.24425817 0.17735285 0.035371877 -0.06312379
-0.07382738 -0.19165099 -0.054304216 0.104078576 -0.04504986 0.004067208 -0.025957456 -0.06557794
-0.3237132 0.18562871 0.06906834 0.12867211 0.2312818 -0.029014565 -0.20404299 0.09149184
0.04383159 -0.07190133 -0.061557006 -0.011247174 -0.09837846 -0.30103534 -0.03206054 0.041954014
-0.103043534 -0.032918848 -0.06339122 -0.04607729 -0.22990036 -0.15315042 -0.14963633 -0.06536213
-0.040225923 0.005226913 -0.1060991 -0.21199974 -0.08912453 -0.49016172 0.045604218 0.011875645
0.036980946 -0.038286183 -0.05583829 -0.054711297 -0.014043378 0.0009141029 -0.09842766 -0.03369286
0.04607311 0.21536358 0.12651521 0.07282967 0.04329261 -0.065654375 -0.10841478 0.080097586
0.23761961 -0.095366076 0.027866669 -0.1334086 -0.08755104 -0.04792056 -0.027478447 0.0023230175
-0.156275 -0.43097872 -0.26756334 -0.14797013 -0.029792257 0.020919608 -0.16051711 -0.36509213
-0.49166915 -0.25412682 -0.020866044 -0.07760418 -0.10723571 -0.19113207 0.039877683 -0.020075517
-0.043704253 -0.16792464 0.1503315 -0.023816092 0.030146535 -0.030912502 0.024370067 0.0011310733
-0.070338935 -0.026171662 -0.07375629 -0.016709141 0.05216385 -0.039067067 -0.041660912 -0.07503335
-0.09254437 -0.11377495 -0.058630235 -0.111155406 -0.27553725 -0.016812453 0.19024077 -0.13749422
-0.17191224 0.07119633 0.025012936 -0.09032124 -0.041184597 -0.034217253 -0.025728688 0.1583123
0.058848895 0.10549994 0.13983916 0.08546581 0.062435944 0.018027484 0.1125576 0.01374431
-0.18744667 0.00033141547 0.22014709 -0.029428666 -0.01156247 0.030077405 -0.08192056 -0.14244321
-0.049589492 0.14146812 -0.0076348996 -0.014302077 -0.2374601 -0.19099279 -0.011117678 -0.021653324
0.029366596 0.052461706 0.04351036 -0.11824781 -0.1944534 -0.07903649 0.054693796 0.19763064
0.17287952 -0.0043622293 -0.14510478 -0.37980148 -0.22469407 0.007889286 0.121267796 -0.12039395
0.07033642 0.04826594 0.07448665 0.03907463 -0.023990711 -0.08972674 -0.1704809 -0.037932362
0.10852269 -0.11337167 0.11825217 0.03661279 -0.14065766 -0.23357336 0.04723311 0.074661225
0.008635935 0.066560775 0.0700346 -0.2891743 -0.13589293 0.0138606485 0.05847919 0.057648066
0.12249714 0.09892418 0.058790587 0.034790315 -0.030211475 -0.19826804 -0.14007564 -0.19585785
00000000: d630 19bc 8d0a 4bbd 4322 97bd 7cbe 73bd
00000010: a6e2 afbd cade f33d 63f7 70bd 77b5 eb3c
00000020: c51f 9bbb dba6 6b3b 1931 ad3d 8a96 67bc
00000030: 87c9 23be ecdf 41be 8d47 9a3d ef54 313e
00000040: 776d 9a3d 7502 9bbe 1b28 e1bd 2276 e1be
00000050: ffbe b4be a3da 683d d308 a03d c7c7 96bc
00000060: c4c9 843d 4046 79bd 785e 57be 9669 91bc
00000070: d336 023d 2193 213d 3a69 d4be 3344 bf3d
00000080: 3d8f 483e 939a c23d 8df8 2d3e fdc0 ad3d
00000090: ccb5 61be abff debe fa3a 8a3e cc08 3e3e
000000a0: b152 b23d e7ba 9b3d 7950 31bd d221 9c3d
000000b0: 8f41 4f3c ed19 5d3d 2ec1 c73b 7391 7abd
000000c0: 43b0 2dbd c02a 49be 846c d6bd f8ff dabc
000000d0: a156 1dbe f4a1 bebd d6fd f53c 85db 163e
000000e0: ede7 ae3c f086 38bc be91 483d 4f1e 3e3e
000000f0: 6243 cf3d bbaf ce3d 30d6 f1bc d4d8 433d
00000100: 2b2d 0ebe 68ef 10be 203e 9fbd 7fca a13d
00000110: d01e 7a3e fc9b 353e 1ae2 103d 0c47 81bd
00000120: cf32 97bd 2840 44be 196e 5ebd 2627 d53d
00000130: 3486 38bd 3746 853b bba4 d4bc ba4d 86bd
00000140: bdbd a5be 7415 3e3e b473 8d3d 9fc2 033e
00000150: 23d5 6c3e f4af edbc a5f0 50be 1360 bb3d
00000160: c188 333d 0141 93bd 3323 7cbd 1146 38bc
00000170: a57a c9bd 4e21 9abe ea51 03bd f9d7 2b3d
00000180: 7d08 d3bd ead5 06bd 42d3 81bd 8abb 3cbd
00000190: 006b 6bbe 77d3 1cbe 443a 19be 95dc 85bd
000001a0: f0c3 24bd 8646 ab3b 7c4a d9bd 7616 59be
000001b0: ec86 b6bd 7af6 fabe 7dcb 3a3d 1192 423c
000001c0: 5579 173d f9d1 1cbd b1b6 64bd f418 60bd
000001d0: 3216 66bc 68a0 6f3a 7194 c9bd 8601 0abd
000001e0: 28b7 3c3d 4588 5c3e 348d 013e b927 953d
000001f0: 9853 313d cd75 86bd 9108 debd 340a a43d
00000200: 8e52 733e 4a4f c3bd a448 e43c 449c 08be
00000210: f64d b3bd 5948 44bd 7b1a e1bc c43d 183b
00000220: 8e06 20be 3ea9 dcbe 10fe 88be 7b85 17be
00000230: e40e f4bc 995f ab3c 995e 24be 5bed babe
00000240: 0fbc fbbe e91c 82be 44ef aabc f1ee 9ebd
00000250: 659e dbbd 20b8 43be c856 233d 6975 a4bc
00000260: 3b03 33bd 70f4 2bbe 80f0 193e f719 c3bc
00000270: def5 f63c 373c fdbc bca3 c73c 8640 943a
00000280: dc0d 90bd f465 d6bc 8a0d 97bd 9ce1 88bc
00000290: c3a9 553d ca04 20bd a2a4 2abd 16ab 99bd
000002a0: e787 bdbd d702 e9bd 4226 70bd 72a5 e3bd
000002b0: 3813 8dbe 45ba 89bc 7ace 423e 49cb 0cbe
000002c0: c309 30be 62cf 913d eee7 cc3c 58fa b8bd
000002d0: 2eb1 28bd 6427 0cbd f8c4 d2bc 9f1c 223e
000002e0: 8a0b 713d 5a10 d83d ff31 0f3e b308 af3d
000002f0: d5bc 7f3d 60ae 933c 9984 e63d d02f 613c
00000300: 05f2 3fbe d5c1 ad39 3d6e 613e 6314 f1bc
00000310: 8470 3dbc e464 f63c f7c5 a7bd a2dc 11be
00000320: 5a1e 4bbd 05dd 103e 2e2e fabb 4253 6abc
00000330: be28 73be 9d93 43be ec26 36bc 5062 b1bc
00000340: 3792 f03c 16e2 563d eb37 323d e82b f2bd
00000350: cb1e 47be e2dd a1bd 9a06 603d b05f 4a3e
00000360: 5407 313e 08f1 8ebb 5996 14be 5775 c2be
00000370: 3416 66be 1042 013c 405b f83d 1a91 f6bd
00000380: 8a0c 903d 82b2 453d 758c 983d b80c 203d
00000390: 2b88 c4bc a7c2 b7bd 8c92 2ebe f75e 1bbd
000003a0: 2541 de3d 682f e8bd 322e f23d 4bf7 153d
000003b0: 9008 10be db2d 6fbe 8177 413d fce7 983d
000003c0: bd7d 0d3c 0451 883d 4d6e 8f3d a70e 94be
000003d0: 8427 0bbe c617 633c e087 6f3d 6120 6c3d
000003e0: c8df fa3d c398 ca3d 66ce 703d 4a80 0e3d
000003f0: 0e7e f7bc c706 4bbe fd6f 0fbe f68e 48be

out.bias f4 [10]
-0.0027082453 0.1317086 -0.02602026 -0.011554847 -0.05560627 0.00646276 -0.007357841 -0.019992951
0.025508706 -0.041394852
00000000: d17c 31bb 9fde 063e 7128 d5bc 8a50 3dbc
00000010: 66c3 63bd 8fc5 d33b 0b1a f1bb 42c8 a3bc
00000020: a2f7 d03c a68d 29bd
